…
.6/dist-packages/keras/backend/tensorflow_backend.py:4267: The name tf.nn.max_pool is deprecated. Please use tf.nn.max_pool2d instead.\n","\n","WARNING:tensorflow:From /usr/local/lib/python3.6/dist-packages/keras/optimizers.py:793: The name tf.train.Optimizer is deprecated. Please use tf.compat.v1.train.Optimizer instead.\n","\n","Model: \"sequential_1\"\n","_________________________________________________________________\n","Layer (type)                 Output Shape              Param #   \n","=================================================================\n","conv2d_1 (Conv2D)            (None, 32, 32, 64)        256       \n","_________________________________________________________________\n","batch_normalization_1 (Batch (None, 32, 32, 64)        256       \n","_________________________________________________________________\n","activation_1 (Activation)    (None, 32, 32, 64)        0         \n","_________________________________________________________________\n","conv2d_2 (Conv2D)            (None, 32, 32, 64)        36928     \n","_________________________________________________________________\n","batch_normalization_2 (Batch (None, 32, 32, 64)        256       \n","_________________________________________________________________\n","activation_2 (Activation)    (None, 32, 32, 64)        0         \n","_________________________________________________________________\n","conv2d_3 (Conv2D)            (None, 32, 32, 64)        102464    \n","_________________________________________________________________\n","batch_normalization_3 (Batch (None, 32, 32, 64)        256       \n","_________________________________________________________________\n","activation_3 (Activation)    (None, 32, 32, 64)        0         \n","_________________________________________________________________\n","dropout_1 (Dropout)          (None, 32, 32, 64)        0         \n","_________________________________________________________________\n","max_pooling2d_1 (MaxPooling2 (None, 16, 16, 64)        0         \n","_________________________________________________________________\n","conv2d_4 (Conv2D)            (None, 16, 16, 128)       8320      \n","_________________________________________________________________\n","batch_normalization_4 (Batch (None, 16, 16, 128)       512       \n","_________________________________________________________________\n","activation_4 (Activation)    (None, 16, 16, 128)       0         \n","_________________________________________________________________\n","conv2d_5 (Conv2D)            (None, 16, 16, 128)       147584    \n","_________________________________________________________________\n","batch_normalization_5 (Batch (None, 16, 16, 128)       512       \n","_________________________________________________________________\n","activation_5 (Activation)    (None, 16, 16, 128)       0         \n","_________________________________________________________________\n","conv2d_6 (Conv2D)            (None, 16, 16, 128)       409728    \n","_________________________________________________________________\n","batch_normalization_6 (Batch (None, 16, 16, 128)       512       \n","_________________________________________________________________\n","activation_6 (Activation)    (None, 16, 16, 128)       0         \n","_________________________________________________________________\n","dropout_2 (Dropout)          (None, 16, 16, 128)       0         \n","_________________________________________________________________\n","conv2d_7 (Conv2D)            (None, 16, 16, 256)       33024     \n","_________________________________________________________________\n","batch_normalization_7 (Batch (None, 16, 16, 256)       1024      \n","_________________________________________________________________\n","activation_7 (Activation)    (None, 16, 16, 256)       0         \n","_________________________________________________________________\n","conv2d_8 (Conv2D)            (None, 16, 16, 256)       590080    \n","_________________________________________________________________\n","batch_normalization_8 (Batch (None, 16, 16, 256)       1024      \n","_________________________________________________________________\n","activation_8 (Activation)    (None, 16, 16, 256)       0         \n","_________________________________________________________________\n","conv2d_9 (Conv2D)            (None, 16, 16, 256)       1638656   \n","_________________________________________________________________\n","batch_normalization_9 (Batch (None, 16, 16, 256)       1024      \n","_________________________________________________________________\n","activation_9 (Activation)    (None, 16, 16, 256)       0         \n","_________________________________________________________________\n","dropout_3 (Dropout)          (None, 16, 16, 256)       0         \n","_________________________________________________________________\n","flatten_1 (Flatten)          (None, 65536)             0         \n","_________________________________________________________________\n","dense_1 (Dense)              (None, 100)               6553700   \n","=================================================================\n","Total params: 9,526,116\n","Trainable params: 9,523,428\n","Non-trainable params: 2,688\n","_________________________________________________________________\n"],"name":"stdout"}]},{"cell_type":"code","metadata":{"id":"dH9rmX3LbFkI","colab_type":"code","colab":{}},"source":["x_train = x_train.reshape(50000, 32,32,3).asty
…
